…
model = Sequential([
    Conv2D(32, 3, input_shape=(100,100,3), activation='relu'),
    MaxPooling2D(),
    Conv2D(16, 3, activation='relu'),
    MaxPooling2D(),
    Conv2D(16, 3, activation='relu'),
    MaxPooling2D(),
    Flatten(),
    Dense(512, activation='relu'),
    Dense(256, activation='relu'),
    Dense(1, activation='sigmoid')
])
model.summary()
Model: "sequential_1"
_________________________________________________________________
 Layer (type)                Output Shape              Param #   
=================================================================
 conv2d_3 (Conv2D)           (None, 98, 98, 32)        896       
                                                                 
 max_pooling2d_3 (MaxPooling  (None, 49, 49, 32)       0         
 2D)                                                             
                                                                 
 conv2d_4 (Conv2D)           (None, 47, 47, 16)        4624      
                                                                 
 max_pooling2d_4 (MaxPooling  (None, 23, 23, 16)       0         
 2D)                                                             
                                                                 
 conv2d_5 (Conv2D)           (None, 21, 21, 16)        2320      
                                                                 
 max_pooling2d_5 (MaxPooling  (None, 10, 10, 16)       0         
 2D)                                                             
                                                                 
 flatten_1 (Flatten)         (None, 1600)              0         
                                                                 
 dense_2 (Dense)             (None, 512)               819712    
                                                                 
 dense_3 (Dense)             (None, 256)               131328    
                                                                 
 dense_4 (Dense)             (None, 1)                 257       
                                                                 
=================================================================
Total params: 959,137
Trainable params: 959,137
Non-trainable params: 0
_________________________________________________________________
model.compile(optimizer='adam', loss=tf.keras.losses.BinaryCrossentropy(),metrics=['accuracy'])
model.fit(x_train, y_train,batch_size=32,epochs=5,validation_data=(x_test, y_test))
…
